pymtcnn/models/pnet.onnx (onnx, 29538 bytes, 11 tensors)

conv1.weight f4 [10, 3, 3, 3]
00000000: a036 a7bd 8efe 553f 338d 9f3f 8e6f 76bc
00000010: 65b2 733e 9d31 acbf 9520 ff3d af56 d2be
00000020: 7bad 14bf c559 88be db26 5a3f e076 043f
00000030: 4255 983e 4aef a33e 679a 8bbf 2af7 d23d
00000040: 520b aabe 321f febe c72c 0cbe ca71 863c
00000050: 75f3 093d 781a d03d 492e df3e 5d92 5dbe
00000060: 3da4 37be 0ecd d3bd 0e8d 743d 1ece f93e
00000070: 16f7 5fbf 32c0 19c0 e377 a63e d73a 4abf
00000080: 3472 39bf effe 483f 0aed 8a3e c74d 823e
00000090: 0b38 fdbe 51c5 8a3e d38a 913f 0372 06be
000000a0: a4ed a1be 9601 063f c109 80be ca62 3cbe
000000b0: 46ff 303f da71 97be d70f 983f 662b a13f
000000c0: 9deb 6b3e 24ed d93e b899 2c3f 79f8 19bf
000000d0: 8b7d 6cbe 55e3 76bf 9346 34bf adfe 393e
000000e0: 8521 b9be 17b7 60bd 59ef 2a3e 4df9 4f3e
000000f0: d8a3 08bf d632 ccbd bc68 73be 5be6 243f
00000100: a581 893e d2f6 a93e 7d25 063f 63e7 f43d
00000110: 072b b83e f93b 103f ab7d c23d 701b a13e
00000120: 5468 c93e 2797 6abe 434b a13e e38a e4bd
00000130: 637d dbbe 2dbb 9fbe f5d8 353f 2724 09be
00000140: 225c e43d 60b1 02c0 44e2 07bf 1114 253e
00000150: 0809 adbf e7b3 783f 97c5 283f 535d 8b3e
00000160: b45c 953f d0df cc3e b1e6 7dbd 3622 01be
00000170: adc2 153f 0994 b1be 69bb 593c bbac 113f
00000180: f0f0 02bf b9c4 193e 29b3 72be 9695 3e3e
00000190: c953 d5be 9f05 72be 1188 b7be 1ee5 9dbe
000001a0: aa66 a63e 0855 cbbd 9c36 4c3e 23a5 5a3f
000001b0: 83d7 b8bf 1269 4740 422c a4bf bfd9 63bf
000001c0: 8938 583f c08e 47bf 16d5 543e 3e5e 833e
000001d0: a6ec 45bd f740 90bf daa1 1540 f497 91bf
000001e0: d18b 49bd 41d5 ac3e 1202 f0be 2b5e 9b3d
000001f0: 8ff9 5c3d 1104 aabc 857c 17bf 106c 743f
00000200: ed92 0ebf ddc9 df3e 49cf 18bf 3035 c73e
00000210: ee29 c6bd 6959 3cbe aabf 5c3e ee97 9ebe
00000220: 42e9 8d3f 6cce 623e f3c1 9fbf 699e 093f
00000230: f691 363f 208d 2fbf 6010 cdbe ee7d f43e
00000240: f559 bcbe 60e3 153f 5fba 063e f7fc 89bf
00000250: 0c4d 8e3e 1fbd 293f fc5b 25bf b7f7 38bf
00000260: b479 ae3e 9574 4bbe e860 5f3e 6dc6 d63e
00000270: b51f 11bf 9d88 703d ef3a 953e 3176 a23e
00000280: 0534 d0be ad62 763e b779 0abf 28fd 2fbf
00000290: d7a4 e0bf 6120 fc3d bacb c43e 47a3 5fbf
000002a0: 7c4c 4c3f 7c54 e13f 102a 963f 0227 5c3e
000002b0: bdb6 f8bd 543f 6f3d 3d78 e73e 9e0e bf3e
000002c0: f45d 723e ef62 6dbf 86cf e0be cf99 51be
000002d0: 4153 93be 7d85 9bbe 376b a2bd 186a 93bb
000002e0: 23df 143e b2fd 5fbe a314 d83e 42e4 f33e
000002f0: 9c94 5abe ab4a 893f e860 203f cf65 e1bf
00000300: 86e6 713f d494 823f fc97 cfbf f694 573f
00000310: 7c21 153f d1de d7bf 9e0b 67be 1661 f93e
00000320: cc1b 93be 906d d2bd 5709 153f d122 b5be
00000330: 4c87 afbe c0cf 803e cb2f a93d 80ac cd3e
00000340: b658 29be c9d6 f0be 82ea 933e abc7 a23e
00000350: 06bf 2abf 15a5 763e edcb 313e e775 98be
00000360: 7035 75bf aaee a3bf 24ef 45bf 2a5b fa3f
00000370: 8f17 1440 c7ce a53f 7262 76bf 4a47 83bf
00000380: 7495 11bf 2561 2cbe 9d0d 62bf bf81 02be
00000390: ee5e 3f3f c1fe ae3f a605 143f 3ee4 06bf
000003a0: 380b 2bbf 4d27 b2be 9464 b4be eeaf c4be
000003b0: 78f3 5cbe 5d3a 133f ec56 1d3f aadc 8a3e
000003c0: 93b8 25be a4e0 8ebe 3932 35bd 0f99 10bf
000003d0: ac8f c5bf 2424 2d3f 0988 7abe 3172 15bf
000003e0: 088b 5a3e d447 c13b 87c0 7ebe 479a 9a3e
000003f0: 1a4f 1540 3e1c 553f 30e7 0e3f be90 6e3f
-0.08164716 0.83591545 1.2464966 -0.015041245 0.23798521 -1.3452641 0.124573864 -0.4108176
-0.5807721 -0.2663099 0.8521554 0.5174389 0.29752547 0.320185 -1.0906495 0.10301049
-0.33211762 -0.49633175 -0.13688956 0.01641168 0.033679444 0.101612985 0.4359 -0.21637864
-0.17933746 -0.103418455 0.059704833 0.48790067 -0.874864 -2.4023557 0.3251334 -0.7899603
-0.72439885 0.78514 0.2713397 0.25449964 -0.4945682 0.27103665 1.1370491 -0.1312943
-0.31626618 0.5234617 -0.25007442 -0.1839706 0.69139516 -0.2957905 1.1879834 1.2591369
0.23039098 0.42563736 0.67422056 -0.60144764 -0.23094766 -0.9644063 -0.7042019 0.18163557
-0.36158386 -0.054862108 0.16692866 0.20309944 -0.53375006 -0.09970634 -0.23770422 0.64413995
0.26856723 0.3319612 0.5240095 0.11958196 0.35970327 0.5634151 0.094966255 0.31466246
0.3933741 -0.22909223 0.31502733 -0.11159303 -0.428691 -0.3119749 0.71034175 -0.13392697
0.111503854 -2.042076 -0.5307963 0.16120936 -1.3518381 0.9714951 0.659265 0.27219638
1.1668916 0.40014505 -0.061987583 -0.12610707 0.58500177 -0.34683254 0.013289311 0.5690419
-0.5114889 0.1501645 -0.23701157 0.1861175 -0.41665486 -0.23634957 -0.35845998 -0.30838865
0.325002 -0.09928328 0.19942707 0.8540823 -1.4440769 3.115788 -1.2826006 -0.8900413
0.84461266 -0.77952194 0.20784411 0.2565784 -0.04832139 -1.1269826 2.3380036 -1.1374497
-0.049205605 0.3375645 -0.4687658 0.075863205 0.053948935 -0.020753892 -0.59174377 0.9547739
-0.5569294 0.43708697 -0.5969129 0.38907766 -0.09675966 -0.18393482 0.21557489 -0.30975288
1.108681 0.22149056 -1.2481064 0.5375734 0.7131647 -0.68574715 -0.40051556 0.47752327
-0.36787382 0.5855007 0.13157032 -1.0780324 0.27793157 0.663042 -0.6459348 -0.7225298
0.34077227 -0.19868691 0.2181431 0.41948262 -0.56689006 0.058724035 0.29146525 0.31730798
-0.40664688 0.2406108 -0.5409197 -0.6874566 -1.7550305 0.12310863 0.3843668 -0.87358516
0.79804206 1.7603908 1.1731586 0.21499255 -0.121442296 0.058410004 0.45208922 0.3731584
0.23668653 -0.92729086 -0.43908328 -0.2046883 -0.28774455 -0.3037528 -0.07930606 -0.0044987313
0.14538245 -0.21874121 0.42203245 0.47635084 -0.21345752 1.0725912 0.6264787 -1.7609195
0.94492376 1.0201669 -1.6218257 0.8421167 0.5825422 -1.6864873 -0.22563025 0.48706883
-0.28732145 -0.10274804 0.58217376 -0.35378125 -0.3428291 0.251585 0.08261069 0.4017067
-0.16537747 -0.47038868 0.28889853 0.3179296 -0.6669773 0.24086411 0.17362948 -0.29777452
-0.95784664 -1.280721 -0.77318025 1.9559071 2.313938 1.2953728 -0.96243966 -1.0256131
-0.5686867 -0.16833933 -0.8830202 -0.12744807 0.74754226 1.3671495 0.5782112 -0.5269202
-0.66813993 -0.3479561 -0.35232985 -0.38415474 -0.21577251 0.5751093 0.6146076 0.27121478
-0.1618369 -0.27905762 -0.04423735 -0.5648355 -1.543447 0.6763327 -0.24465956 -0.5837737
0.21342099 0.005898455 -0.24878131 0.3019583 2.332953 0.8324622 0.55821514 0.9318961

conv1.bias f4 [10]
00000000: 60a6 a9bd b476 6b3f 5626 983f c7c7 b13d
00000010: 73fe 9ebc 0edb 00bd 8089 073e c9d3 55bd
00000020: 05bc fa3b 54d5 2a3f
-0.08283687 0.91978 1.1886699 0.08680683 -0.01940844 -0.031458907 0.13236046 -0.052203927
0.007651808 0.6673176

prelu1.weight f4 [1, 10, 1, 1]
00000000: a11a 20bf e1c2 58be d87e 813f 8fda e13e
00000010: ad72 84bf 7d9d a43e 2585 98be 4ff7 803e
00000020: 00fb 61bf e09f a3bf
-0.6254063 -0.2116809 1.0116835 0.4411206 -1.0347496 0.32151404 -0.2978908 0.2518868
-0.8827362 -1.2783165

conv2.weight f4 [16, 10, 3, 3]
00000000: 3a98 eebd 8444 a33e cec5 aebe 7262 c4be
00000010: 7b9d eb3c e23e 95be 451f 14bf 98e4 00bf
00000020: ce00 563f 68a4 bfbc e809 1e3d 991b 96be
00000030: e4cb 963e 3da3 0c3e 4962 1dbe 8012 763e
00000040: d36e dcbe 3542 dc3c 6bfc bbbd 5fa2 113e
00000050: 7229 98bb 7e30 813e e754 20bd 2aee a13e
00000060: 3ae6 d23e dbc6 b6be 4cf4 edbe 3456 ad3e
00000070: 21a1 21bf cf93 103f 223e e2bd 92c8 8f3d
00000080: fd72 9abe 2a7d 623e 8e7c 1bbf 50b1 013f
00000090: b14b f63e d28c 4fbc 2305 143d 1d93 343e
000000a0: bddd 4bbe 857b cebe e3ec 633d c456 f6bd
000000b0: ce39 cebe 1d38 80be be50 333e 8862 a53d
000000c0: d508 453e 88ad de3e a23e 0dbd 9426 07bd
000000d0: de65 85bb 7ff0 f6bd 1e19 bc3b dfdb 613e
000000e0: ace0 443d 508e bbbe 8184 423f 12d8 86be
000000f0: 9c1c 833e 661a 97be 443e e5bf 5227 953c
00000100: 9f2d 21be a365 723d fda7 963d 97b5 61be
00000110: fee6 023f d1dd d13d 273c 71be 48f4 883e
00000120: 10c3 0dbd f7ee 383e 8dbe 1fbe a568 ac3e
00000130: 93da 643d 768a 03bf 662b a13e 433e 8c3e
00000140: c8a3 abbf 82d9 f539 216d 913d c7cc 78be
00000150: e863 6a3e 4c90 c63d 0706 c33d eaa0 7d3e
00000160: e5fd 8abe 4a1f 44bd 7b80 79be 094d bd3e
00000170: cd07 1a3e 5a3f 3ebd 9e7d 853e a4a5 8e3e
00000180: 5aac 0f3c bbb2 d83a d9af 913e 0ac2 27bf
00000190: 94f6 acbe 9052 81bf 53ea 223c 398e 3abe
000001a0: ecea 0a3e 2b41 fbbd bb77 99be 5093 4d3e
000001b0: 6eb9 18bf 603c cbbe 0e82 24bf c630 473f
000001c0: cfa0 d33e 833a 1e3f 8459 f0bb 50f3 033e
000001d0: 7e7c f73d e355 c5be 79f5 33be e726 5d3e
000001e0: a42f 78be 6475 60be f0c9 c33d 13ce 8fbd
000001f0: 77da fdbd 05ed 1f3e d15c 8a3d 7b51 d13c
00000200: a13c 093e a542 cebd b30e 06bf 3661 3dbe
00000210: e2de eabd 51f9 c7be 011e 1fbe c532 df3e
00000220: 9c4b ae3c 0db8 a73d 71b1 c43e 81eb 863d
00000230: ea26 03be b465 d13d f9f2 bf3d eacb 19be
00000240: 6afe f83c 0a2f 493d 8a6c 28bf fe52 fb3d
00000250: b908 edbd f8bf abbe 2c90 2d3e f6df 843d
00000260: 1e36 86bd 48a0 0c3e f173 1dbe 1049 9e3e
00000270: 2ce1 6f3d aa73 31be 45a7 dd3d 3460 89bc
00000280: 24d3 27bd f4ed 83bd 3c5a b9bd aab9 063f
00000290: 43d5 1abe 597f cdbd 9d20 9a3e 92cb 03be
000002a0: 4a68 18bd 277e 883d 4998 5fbc ceab 85bf
000002b0: d83f b8be 9c3a 5cbf a6d1 ca3e 2d1a 1fbe
000002c0: 185c 75bd 96ef 683e 86a0 5f3d ca71 ec3d
000002d0: 2a91 d1bd 3755 a3be 8193 9a3e 5c03 40b9
000002e0: 8c43 e7bd a406 223e 49f2 34bc f013 c23c
000002f0: 1d57 5e3c f33f babc d231 933d 7a51 94bf
00000300: 94b0 e1bc 53a3 9bbd 856d 98be c597 903e
00000310: 89f2 543e 2e57 33be ed4e 253f 7ebf 873e
00000320: 74b3 f0be 28f1 e9bd ee68 cbbe 3778 c7be
00000330: 6f28 1b3f ad9e f3bb 6151 793d 01a9 2a3e
00000340: d8a9 873d ddfa 8a3d aa17 1a3c 2f89 55bd
00000350: 9d2d e9bd 6e13 363e 687f 673d 2a9c e1bd
00000360: aab3 ccbd 98cb ac3d faec b9be 2acf 093e
00000370: b783 ac3d b987 4f3d bb8b 723e 7664 5a3e
00000380: c0b6 273e 36af 1fbe 6777 213e f71f dcbe
00000390: fe6f c6bc 3602 a7bb da1d f83c e4c2 e03d
000003a0: 125f 133d 59ff eebb 634f 33be 55fe 833b
000003b0: 5299 8abe e04b 53bc 2349 65be 4164 a3bd
000003c0: 3ea3 f0bd 2cef 55bd 0646 dabb 751f 1ebe
000003d0: 9415 8abe 4d49 58bf d734 a3bd d4bb e8bc
000003e0: 0d51 243c 2d82 1bbd ece6 2cbe db0a 18be
000003f0: c9eb 283d 3a83 55bc b241 9b3e f453 f23c
-0.11650129 0.3188821 -0.34135288 -0.38356358 0.028761616 -0.29149538 -0.57860214 -0.50348806
0.8359498 -0.023393825 0.038583666 -0.2931793 0.2945243 0.13734145 -0.15369524 0.24030495
-0.43053302 0.026887039 -0.09179004 0.14222096 -0.0046436125 0.2523231 -0.03914347 0.31627017
0.41191274 -0.3569859 -0.46475446 0.3385483 -0.6313649 0.5647554 -0.11047007 0.070206776
-0.30165854 0.22118059 -0.6073693 0.5066118 0.48104623 -0.0126678515 0.03613771 0.17634244
-0.19908805 -0.40328613 0.055645835 -0.12028268 -0.40278476 -0.2504281 0.1751127 0.08075434
0.1924165 0.4349177 -0.03448356 -0.032995775 -0.0040709814 -0.1205759 0.005740299 0.2205653
0.048065826 -0.36632013 0.75983435 -0.26336724 0.25607765 -0.29512328 -1.7909627 0.018207226
-0.1574006 0.05917896 0.0735626 -0.22041927 0.51133716 0.10247386 -0.23558103 0.26748872
-0.034609854 0.18059908 -0.15600033 0.33673587 0.05587251 -0.5138315 0.31478423 0.27391252
-1.3409357 0.00046892097 0.07100893 -0.24296866 0.22889674 0.09695491 0.09522634 0.24768415
-0.2714683 -0.047881402 -0.24365418 0.36972836 0.15042038 -0.046447136 0.260724 0.2786075
0.008769119 0.0016532758 0.28454474 -0.65530455 -0.33781874 -1.0103321 0.009943563 -0.18218316
0.13566178 -0.12268289 -0.2997416 0.20075727 -0.59657943 -0.396945 -0.6426095 0.778088
0.41333625 0.6180803 -0.00733489 0.12885785 0.12084292 -0.3854209 -0.17574109 0.21596871
-0.24236923 -0.21919781 0.09560001 -0.070217274 -0.123951845 0.1561776 0.067559846 0.025551548
0.13402034 -0.10071305 -0.5236618 -0.18494114 -0.11468293 -0.390574 -0.1553879 0.43593422
0.021276288 0.08189402 0.38416627 0.065878876 -0.12807813 0.102244765 0.09372515 -0.15019193
0.030394752 0.049117126 -0.6579062 0.12271689 -0.11573929 -0.33544898 0.16949528 0.0648803
-0.06553291 0.13733017 -0.1537626 0.30915117 0.05856435 -0.17329279 0.1082292 -0.016769506
-0.040972844 -0.0644187 -0.09050414 0.5262705 -0.15120415 -0.10034055 0.30103007 -0.12870625
-0.037208833 0.06664687 -0.013647147 -1.0443056 -0.3598621 -0.8602693 0.39613074 -0.15537329
-0.05990228 0.22747645 0.054596446 0.11545141 -0.10232766 -0.3190095 0.30190662 -0.00018311798
-0.112921804 0.15822846 -0.011044093 0.023691148 0.013570574 -0.022735571 0.07187237 -1.1587365
-0.02755002 -0.07599511 -0.29771057 0.2824079 0.20795645 -0.17513725 0.64573556 0.26513284
-0.47011912 -0.1142295 -0.39728492 -0.38958904 0.6060857 -0.007434687 0.060868625 0.16666032
0.06624192 0.067861296 0.009405056 -0.05213278 -0.11385653 0.1778085 0.05651799 -0.11016114
-0.09995206 0.0843727 -0.3631361 0.13457933 0.0842356 0.050666545 0.23686115 0.21327385
0.16378307 -0.15594181 0.15768205 -0.42993137 -0.024223324 -0.005096699 0.030287672 0.109746724
0.035979338 -0.0072936234 -0.17510752 0.0040281215 -0.270701 -0.012896508 -0.2239118 -0.07978106
-0.11749886 -0.052230045 -0.0066611795 -0.15441687 -0.26969588 -0.8448685 -0.07969063 -0.028409876
0.01002909 -0.037965942 -0.16884965 -0.14847891 0.041240487 -0.013031775 0.3032356 0.029581048

conv2.bias f4 [16]
00000000: f3a0 823f 9234 1f40 9834 1740 589a d73e
00000010: 80ab 823f 2c42 c43f 2b49 1a40 b491 1940
00000020: 4cfa 3c3f 3f8d 423e 7337 a33e c1c5 b83e
00000030: 72d3 da3f 633c f6bd 9076 193f 26ea 2d40
1.0205368 2.4875836 2.362585 0.42109942 1.0208588 1.5332694 2.4107158 2.399518
0.7381942 0.18999194 0.31878242 0.36088374 1.7095778 -0.120232366 0.59946537 2.7174163

prelu2.weight f4 [1, 16, 1, 1]
00000000: 8d38 893d 809c 513e e218 813e 6c91 293d
00000010: 272e 473e 9d01 9a3e fb95 d93e 6a16 de3e
00000020: b79b 333e 20a6 06bf eef1 043e 7b77 423e
00000030: bdf9 87ba 1dbc 21be 2008 59be b002 6fbd
0.06700239 0.20469856 0.25214297 0.04139845 0.194512 0.30079356 0.4249724 0.43376476
0.17539869 -0.52597237 0.12982914 0.1899089 -0.001037411 -0.15794416 -0.21194506 -0.058352172

conv3.weight f4 [32, 16, 3, 3]
00000000: 7d36 873d e39f eb3e 8ae2 c73e 5c55 093e
00000010: 8a76 bb3e c5c2 813e b47e ffbd 1314 4d3e
00000020: 1c6f b13e 32ab 0c3e 5c26 55bd 175e 41be
00000030: e113 cd3b 4b70 483d 0f29 b7bd 6c93 6a3e
00000040: 3a4e d33d 73b8 97bd 5da8 dbbe a07c abbe
00000050: 9557 6cbe 7f19 0abe a5f7 bbbd c714 88bd
00000060: ad8f 12bf 2b57 56bd 0b5b 2b3d 5d1f 5f3d
00000070: 64f5 f9bd d3ba 0a3d 5dbb 8f3a c06f 12be
00000080: 5dd7 6dbc f6bd 9e3d 3767 5bbd 55e8 90bd
00000090: 1c0a da3c 3910 623e df57 863e 3030 863d
000000a0: 4f8c 203e 04f8 5d3d 66ce 2ebe e297 703e
000000b0: 8ea9 b03d 5369 da3d 7247 3b3e 4f31 b53d
000000c0: 8ae0 4dbe acdd 05bd 3784 933d 3408 0c3e
000000d0: 2830 1dbe 23c3 1dbe 363f 8c3d 2c5f 363e
000000e0: 629a 7f3e 6d6d 003e 2328 2abe d3d6 11be
000000f0: 853f 783d 843d 7bbd de45 1b3d 9cbc cd3e
00000100: 94be c5bc e531 7bbd 3ddf 263e 4eeb c03d
00000110: 9153 2fbd 5402 183e 039e 8f3d 4506 4cbd
00000120: a390 863d 472a 05be 950c fbbd 93f7 2a3c
00000130: ce10 13be ceea 133e 7059 d33d f675 f5bd
00000140: aeef 6fbe a267 c8bd 0824 73bd f728 8ebd
00000150: c292 9cbd 2fad bdbd b263 5a3d 54f7 823c
00000160: f493 913d cc83 8b3d bb73 773c 433f c73d
00000170: 721d f3bc 31e0 55be ae59 7f3d c8e9 1a3c
00000180: 5371 ecbd 186e c0bd 6857 333e 0cf4 213c
00000190: 5c7c 19be 28c3 c53d f6ec ddbd b7f2 4abd
000001a0: ec7a 933d 9419 913c 1dec 77bd 90cb a03d
000001b0: ebda 1a3e cd0d 3d3d 18ed 66bc 96da 6abd
000001c0: 2679 35be 30ce 50be 5478 16bc 8920 02be
000001d0: dc11 c43d 838b e33d 64d2 1e3e c961 9d3d
000001e0: 1d5a e43c 2038 153e 99cd 6e3d 21c4 cf3d
000001f0: 98d7 1d3e 7dce 003e 553b e13c a5c0 823d
00000200: c9b0 833e 6550 16bc 7d57 7b3d a502 133e
00000210: 440f e13c 3fb3 183d 460b b83d 7c12 543e
00000220: 2dc8 aebd 7512 e0bd 71c1 563e 2e7a 25be
00000230: b361 93bd da34 8d3e 127f 96bc 8553 7cbe
00000240: 7ad8 26bc 3b33 81bc 5594 97bd e6ac efbc
00000250: bc57 84bc f25e b2bd 5874 ac3c 36b0 03bd
00000260: b8eb 0cbe 9bd8 5c3d 6e81 853d c537 6bbe
00000270: 954c 5cbd 0eca efbc 65c2 22be 188a 093d
00000280: b0ea b93d aa95 6fbe ddf9 06be 1bd6 62bd
00000290: 6a96 3f3d 068e df3d 4971 43bc cf71 8d3d
000002a0: 517f eb3d fa81 8e3d 5a0f 4c3d 211b 553d
000002b0: 7547 34bd 7333 15be cf22 553c eec2 e1bc
000002c0: 5511 edbd c231 40bd 88a9 b7bd f754 2abf
000002d0: c0ec 87bd 72a1 dfbc e55e 663d de3e 9c3b
000002e0: a4cf 2fbe daa7 083e 6cba 0e3d a4cf 8abb
000002f0: d360 f5bd 8bee 893d cbdf db3d 14e8 b1bd
00000300: d912 5a3d 9fdb 53bd 2e9d 123e 064f 8f3d
00000310: fd7a 7cbe e89e e4bb 2952 583d 63fe 1f3e
00000320: 7e7b 853e 6d01 de3d b71b bb3d 1d28 623d
00000330: 57bd e5bd 968f 17be efe6 3cbe 875a cfbd
00000340: a945 bfbc f676 4cbb e0fd 96bd 178a 883d
00000350: 3eba 293d 3bf2 213c 05d1 0dbe 1d94 883e
00000360: 4d86 433e 3c80 abbe 932c 923e e77a 093e
00000370: 1bc6 5ebe 408f 2f3e 7e4b 763e bb01 bebe
00000380: 2295 7b3e ed9f 8ebe 9d84 53be c6c7 e0bd
00000390: f713 ebbd 56fa 40be 4ce6 2abe be43 e9bc
000003a0: 8aa4 ccbd 4dcc 92bc ee7a ac3c 67ba 63bd
000003b0: 856f 613d 59d5 f4bd c9ca 09be 96d8 a03d
000003c0: e7e2 063b 3823 903c 5795 06bc 429a 29be
000003d0: 9a78 21bd 513e 4ebd 0aeb 05be 1660 5c3c
000003e0: de86 fcbd ff59 a7bc 8b27 8a3d b64a c8bd
000003f0: 55c6 a53d 4699 2d3c ba79 103c e8f5 9c3d
0.0660219 0.4602042 0.39040023 0.13411468 0.36613876 0.2534391 -0.124753386 0.20027189
0.34655082 0.13737181 -0.052038535 -0.18883549 0.0062584733 0.048935216 -0.08943378 0.229078
0.10317655 -0.07408228 -0.42901888 -0.3349352 -0.23080285 -0.13486288 -0.09178094 -0.06644588
-0.5725048 -0.052329224 0.041834872 0.05447327 -0.12205008 0.033869576 0.0010965873 -0.14300442
-0.014516679 0.07751076 -0.05356523 -0.07075564 0.026616149 0.22076501 0.26238915 0.0655216
0.15678523 0.054191604 -0.17070922 0.23495439 0.0862609 0.1066462 0.18288973 0.088472955
-0.20105186 -0.032682106 0.07202952 0.13675004 -0.15350401 -0.1540647 0.06847994 0.17809743
0.24961236 0.12541743 -0.16616873 -0.14242105 0.060607452 -0.061337963 0.037908427 0.4018296
-0.024138726 -0.06132688 0.16296096 0.09419881 -0.042804305 0.14844638 0.0701256 -0.049810667
0.06570556 -0.13004409 -0.12258259 0.010435003 -0.14361879 0.1444504 0.10319793 -0.1198539
-0.23431274 -0.097853914 -0.059360534 -0.06941407 -0.07645179 -0.09261548 0.053317733 0.015987076
0.07108298 0.06812248 0.015103276 0.09728863 -0.029677127 -0.20886303 0.062341385 0.009455152
-0.115450524 -0.09395999 0.17513812 0.009884845 -0.14988846 0.09656364 -0.10836212 -0.049547877
0.0720118 0.017712392 -0.06052791 0.078513265 0.15122573 0.04615574 -0.0140946135 -0.057337366
-0.17721996 -0.20391154 -0.009183962 -0.12707724 0.09573719 0.11110594 0.15509945 0.07684667
0.027875 0.14572191 0.058301542 0.101448305 0.15414274 0.12578769 0.027494112 0.063844
0.25720814 -0.009174441 0.061362732 0.14356478 0.0274731 0.037280317 0.08986525 0.20710176
-0.08534274 -0.109410204 0.2097223 -0.16159889 -0.07196369 0.27579385 -0.018371139 -0.24641235
-0.010183448 -0.015771499 -0.07401339 -0.02925725 -0.016155116 -0.08709516 0.02105157 -0.03215047
-0.13761795 0.05391751 0.065188274 -0.22970493 -0.05378397 -0.029271152 -0.15894468 0.033578962
0.09077966 -0.23396936 -0.13181253 -0.055379968 0.046774305 0.10915761 -0.011928865 0.06906473
0.11498893 0.06958385 0.049819328 0.052027825 -0.04401346 -0.14570408 0.013008787 -0.02755877
-0.115755714 -0.046922453 -0.089678824 -0.66535896 -0.06636953 -0.027298663 0.056242842 0.0047682365
-0.17169052 0.1334528 0.034845755 -0.0042361785 -0.119813584 0.067349516 0.107360445 -0.086868435
0.05324063 -0.05172312 0.14317772 0.069974944 -0.24656291 -0.006976951 0.05281273 0.15624385
0.2607078 0.10840116 0.091361456 0.055214036 -0.11217754 -0.14800867 -0.18447469 -0.101246886
-0.023348646 -0.0031198836 -0.073726416 0.066669635 0.04143738 0.009884412 -0.13849266 0.266755
0.190942 -0.33496273 0.28549632 0.1342579 -0.21755259 0.1714449 0.24052235 -0.37110695
0.24568608 -0.2785639 -0.20656057 -0.10975604 -0.11478417 -0.18845496 -0.16689414 -0.028474685
-0.09992321 -0.017919684 0.021054711 -0.05559769 0.055037994 -0.11954755 -0.13456263 0.078538105
0.0020582022 0.017594919 -0.008214316 -0.16562751 -0.039421655 -0.0503524 -0.13077942 0.013450643
-0.123304114 -0.020428656 0.067458235 -0.09779875 0.080944695 0.010595625 0.008818084 0.076640904

conv3.bias f4 [32]
00000000: 1cca b7bd 0ba2 dd3f c6a9 a53f 4f7b e3bf
00000010: ec0e cb3e ffc3 083f 0233 ac3f b299 453f
00000020: 78a9 493f a6f2 9f3e db2d c2be 7e03 97be
00000030: 7c83 ee3f 199d 503f 8900 c03f 46fb c1bf
00000040: 4a30 37bf d8e1 f7be 6b28 1dbf cb27 bc3f
00000050: 589a af3f 818e 4c3f 6c5e 6b3f 784b 623f
00000060: 21ea 593f d509 7f3f 3e2c a3be ca29 5dbe
00000070: 5d9c 693f d7e1 183f ca5b 453f 2e3e c53e
-0.08974096 1.7315077 1.2942436 -1.7772006 0.39659822 0.53424066 1.3453066 0.77187645
0.78774214 0.31239814 -0.3792561 -0.29494852 1.8633876 0.8148971 1.5000163 -1.5154808
-0.7155806 -0.48414493 -0.613898 1.4699644 1.3718977 0.79904944 0.9194095 0.88396406
0.8512288 0.9962438 -0.31869692 -0.21597973 0.91254216 0.59719604 0.77093184 0.38524002

prelu3.weight f4 [1, 32, 1, 1]
00000000: 1e32 583d 2046 51bd 09bd bc3d 92e7 b6be
00000010: 8110 a9be 6ed2 08be 3437 a6bb 8bae 5f3d
00000020: 5e8b a6bc d01b c7bc 3e79 b43d 1eec 98be
00000030: 85ed 75be b47a 1e3e fc0e 403e ae4c 93bd
00000040: f1d0 6ebe 9628 783e 5d8c 913e 8aa5 eebc
00000050: 6246 d3be dab2 a8bc c267 b5bd 8994 4ebe
00000060: 0490 7e3b c215 303f 94d0 a03e ef63 7d3e
00000070: 77b0 803d bd99 3cbe 7213 07be 1ce4 653e
0.05278217 -0.051092267 0.09215743 -0.3572355 -0.33020404 -0.13361523 -0.0050724987 0.054609817
-0.020330127 -0.024305254 0.088121876 -0.29867643 -0.24016388 0.15476495 0.18755716 -0.0719236
-0.23321892 0.24234232 0.284274 -0.02913167 -0.41264635 -0.020593096 -0.08857681 -0.20173849
0.0038843164 0.687832 0.31409132 0.24745153 0.06283658 -0.18418022 -0.13191012 0.22450298

conv4.weight f4 [6, 32, 1, 1]
00000000: 9980 943d f13c f13d 785f 0ebf 3a30 533d
00000010: 0c48 3e3e 76e0 18bd baa9 0a3e 29b8 77bd
00000020: 8b2e e9be 5061 a03e 007a 3f3e 29ad 9cbe
00000030: 59db 993c 7a72 fc3d b659 b83e 9e83 4f3e
00000040: dda5 bc3e bec5 f6ba 2c01 98be ed92 393e
00000050: 94ce b8be 3664 a3bd 8e24 10be a6e8 39be
00000060: 11ad 97be 0194 7d3e e688 843e 2207 84bc
00000070: a1a5 b6be 5baa 52be 8a0b ea3d 4b66 223f
00000080: 798e afbe 1bdb 93be 5595 373e b3b5 afbe
00000090: f40a 79be f37e d33e 4ef5 7ebe 1e06 71be
000000a0: 4f52 513e 8731 efbd 7e1c f5be 6261 793e
000000b0: 874a 01bf fa30 963c f638 50be 5d29 bdbe
000000c0: 276c 0bbe 16fd 67be c911 d53d b085 84be
000000d0: 3920 533e acf0 db3e 8a53 ea3e b2f4 a23e
000000e0: e7e6 0d3f 90ac a9be d97b d5be 028d 193e
000000f0: 9cd8 133f bb16 9b3e c009 58be a473 29bd
00000100: 4957 c0bb 581d 7f3c 7ff0 a33b 353a 81bb
00000110: 9b06 3e3b 4c8d 0c3d 6a24 25bb f45b 9abc
00000120: 71a7 6bbc e223 26bc a857 043b 4fa6 d73b
00000130: a19c c8bb d12b 17bc a159 00ba 809e 333b
00000140: 5507 0dbc f6ea 4a3e 6d89 37bd 11d2 44bd
00000150: 20f2 1b3b 1fb7 66ba 6cc9 32bc 55ac c93b
00000160: d597 9fbb b6ec 283b 61c5 1fbd 8dbd 22be
00000170: 3424 813b 077f e73b 354c a73b 2007 f73c
00000180: 96a0 0dbc 5211 1b3c 2b38 a63b 223c f8bb
00000190: 3503 4d3a 07e5 ea3a 9d72 62bd 1670 263d
000001a0: 579f c4bb 06c1 89bc d217 82bb 66c2 323c
000001b0: ae9f 313a ed10 9b3d fcb9 4b39 beff e63b
000001c0: 2290 c9bb 11d0 443e 36f1 01be 53ef 78bc
000001d0: 7a20 b93b e73c 8ebb b2c7 a3bc 8c48 1b3c
000001e0: 0a54 81bb 4fb8 fd3b 77c9 c0bd e089 bb3d
000001f0: 5677 843b 4e03 963b 3c73 4a3b 5aaf bdbc
00000200: fa02 973b 957d 973c 0f52 12bc e33a 243c
00000210: 6bea 863b fe6f e33b b1bf 0e3c 7947 cbbd
00000220: 9c45 6d3c 2ae3 8f3b 041a 873c ab65 b7bb
00000230: fbef a33b 2887 1f3c 9159 ae3a 84bb b13a
00000240: 76a6 1a3c bef5 913d 5a75 0b3e 0269 94bb
00000250: e8de a2bb 21cb 0d3b 7064 043c a9d3 8ebb
00000260: 5837 8f3b 9b26 c33c 6f9e 0fbe 9bb2 5fbd
00000270: a674 b1ba 561b 84bb 8695 9aba 2523 403d
00000280: 87f0 c23b c50d 7f3c a3dd 00bc f88f 143c
00000290: 2ae5 193b 450a 0fbd fc0b 3abd ae57 20bd
000002a0: f429 213d 1a30 bfb8 449f 9e3c b580 41bc
000002b0: b949 1b3c d53a f13d e101 b93a ae1d ae3b
000002c0: c367 c93b a45c 6dbd 212a 48bd 8391 d03c
000002d0: 5761 efbb c98d 083c 1112 b23b a97e c3bb
000002e0: 598d 313c d958 b33c 2652 06be b7bc 203e
000002f0: 785a 543b 89a8 edbb 454c 88bb 346b 973c
0.072510906 0.11779202 -0.55614424 0.051559664 0.18582171 -0.037323438 0.13541308 -0.060478363
-0.45543322 0.31324244 0.18698883 -0.3060086 0.01878135 0.12326522 0.36005944 0.20265052
0.36845294 -0.0018827242 -0.29688394 0.18122454 -0.36095107 -0.07978098 -0.14076445 -0.18155155
-0.29624227 0.2476349 0.25885695 -0.016116682 -0.3567324 -0.20572798 0.11427982 0.63437337
-0.34288386 -0.28878102 0.1792806 -0.34318313 -0.24320585 0.41307792 -0.24898264 -0.2353749
0.20441554 -0.116793685 -0.478733 0.24353555 -0.50504345 0.0183339 -0.20334229 -0.3694562
-0.13615476 -0.22655138 0.10403783 -0.25883245 0.2061776 0.42957056 0.4576686 0.31827313
0.55430454 -0.33139467 -0.4169605 0.14995196 0.57752395 0.3029078 -0.2109747 -0.04137005
-0.00586978 0.015570961 0.0050030346 -0.0039437064 0.0028995636 0.03431444 -0.0025198706 -0.018842675
-0.014383183 -0.010140391 0.0020193849 0.006581105 -0.0061221872 -0.009226755 -0.0004896168 0.0027407706
-0.008607705 0.19816193 -0.044808794 -0.048051897 0.002379544 -0.0008801091 -0.0109122805 0.006154577
-0.0048703947 0.0025775856 -0.039006595 -0.1589262 0.0039410833 0.0070647034 0.00510552 0.030154765
-0.008644244 0.009464579 0.0050726137 -0.0075755278 0.0007820607 0.0017921039 -0.055285085 0.040634237
-0.00600044 -0.016815674 -0.0039701248 0.010910606 0.0006775808 0.07571588 0.00019428873 0.00704953
-0.006151215 0.19219996 -0.12689671 -0.015193778 0.0056496235 -0.004340756 -0.019992683 0.009477746
-0.003946786 0.0077429186 -0.09413426 0.09157157 0.0040425463 0.0045780307 0.003089144 -0.023154903
0.004608509 0.0184925 -0.008930697 0.010023805 0.0041173003 0.0069408407 0.008712695 -0.09925742
0.014481928 0.0043910937 0.016491897 -0.0055968366 0.005002973 0.009736814 0.0013301839 0.0013559912
0.009439101 0.0712695 0.13618985 -0.0045291195 -0.00497042 0.0021635967 0.008080587 -0.004358728
0.004370611 0.02382212 -0.14025281 -0.05461369 -0.0013538792 -0.004031579 -0.0011793829 0.046908516
0.0059490833 0.015567248 -0.007865342 0.009067528 0.002348254 -0.034921903 -0.045421585 -0.039146118
0.03934665 -9.116549e-05 0.019363053 -0.011810471 0.009478026 0.117787994 0.001411494 0.0053135967
0.0061464026 -0.057949677 -0.048868302 0.02546001 -0.007305305 0.008334585 0.0054342826 -0.005966027
0.010836923 0.021892952 -0.13117275 0.15696989 0.0032402556 -0.007252757 -0.0041594827 0.018483736

conv4.bias f4 [6]
00000000: a501 0b3a 1816 05ba a69f b03c 7b83 2fbd
00000010: 6a26 7abd 1cae 47bc
0.0005302674 -0.00050768396 0.021560501 -0.04285 -0.06107179 -0.012187507
